ObserisGame/src/main/resources/tetris_model_examination.onnx (onnx, 4442 bytes, 4 tensors)

conv1.bias f4 [32]
-0.06591249 0.12674315 0.026248757 -0.032492477 -0.11856242 -0.1156437 -0.04184767 0.09192324
0.0023709845 0.009845724 -0.02476088 0.1360025 -0.038294386 0.024678662 0.030574404 -0.08676177
-0.09769287 0.109789416 -0.083663814 -0.10502234 -0.13248314 -0.014187689 0.1292457 -0.074639425
0.0052955397 -0.13820139 0.06834519 -0.09838244 -0.035194114 0.035600793 0.00902255 -0.110748224
00000000: 21fd 86bd f5c8 013e a207 d73c d516 05bd
00000010: dbd0 f2bd 9bd6 ecbd 7668 2bbd 4042 bc3d
00000020: 8562 1b3b f64f 213c 54d7 cabc 3d44 0b3e
00000030: 93da 1cbd e82a ca3c 2c77 fa3c 28b0 b1bd
00000040: 3313 c8bd 46d9 e03d ef57 abbd f415 d7bd
00000050: a9a9 07be 7b73 68bc fc58 043e 8edc 98bd
00000060: 3586 ad3b aa84 0dbe 90f8 8b3d bc7c c9bd
00000070: b427 10bd 23d2 113d 51d3 133c f7cf e2bd

conv2.bias f4 [64]
-0.05460361 0.011195103 -0.0024110968 0.052846383 0.036287975 0.019236118 0.000941591 0.015695127
-0.058017936 -0.057339102 0.025256477 0.054913513 -0.043697737 0.0506195 0.03285578 -0.0019301123
-0.0076046935 0.04358468 0.006578219 -0.007893251 -0.052428424 0.04450791 0.036621727 0.0136247715
0.010122225 -0.019358948 0.008852585 -0.006907251 -0.026935475 -0.026424376 -0.031880595 -0.048996232
-0.00239624 0.008286422 0.01650591 0.04828835 -0.052039344 -0.02044277 0.03976107 0.05232609
0.015791025 0.040225573 0.0106467325 0.0054185404 0.03696841 -0.037021372 -0.022058468 0.0032293738
0.044072654 0.021689132 -0.009196425 -0.04114062 -0.019573847 0.013219482 0.04780177 -0.005798703
0.012791561 -0.010835943 -0.026597943 0.018236352 -0.03033103 -0.039014366 -0.028277352 0.051093448
00000000: 09a8 5fbd aa6b 373c 7e03 1ebb 7375 583d
00000010: b3a2 143d 1095 9d3c 1ad5 763a 1193 803c
00000020: 37a4 6dbd 68dc 6abd ace6 ce3c feec 603d
00000030: 66fc 32bd 6556 4f3d c893 063d d2fb fcba
00000040: cb30 f9bb d985 323d 1a8e d73b b252 01bc
00000050: 30bf 56bd ed4d 363d aa00 163d 6f3a 5f3c
00000060: b0d7 253c a896 9ebc 6f0a 113c 3956 e2bb
00000070: c9a7 dcbc ef77 d8bc 3a95 02bd 46b0 48bd
00000080: 3c0a 1dbb c6c3 073c 6737 873c 01ca 453d
00000090: 3527 55bd 9977 a7bc 81dc 223d e253 563d
000000a0: 2e5c 813c 92c3 243d a26f 2e3c 038e b13b
000000b0: 306c 173d b9a3 17bd f6b3 b4bc e7a3 533b
000000c0: 8785 343d 68ad b13c 9aac 16bc 1183 28bd
000000d0: 5559 a0bc 8796 583c cacb 433d 0c03 bebb
000000e0: b293 513c 3d89 31bc eee3 d9bc 6764 953c
000000f0: c878 f8bc 87cd 1fbd e8a5 e7bc 5d47 513d

fc_features1.bias f4 [64]
-0.10782444 -0.1131705 -0.01958269 -0.10414923 0.079518035 -0.1148998 -0.040790297 0.052407697
-0.04218464 0.0359728 0.061575115 0.11402455 0.10560595 0.031658523 -0.038608734 -0.06493809
0.05163867 0.018529693 0.015102396 -0.020447332 -0.09200445 0.007039746 0.057386294 0.052650504
0.11251243 0.07714764 -0.040211186 -0.06847979 0.03703109 0.057381965 -0.10208888 0.086633004
-0.050225403 0.036029823 0.01630042 0.008838447 0.11101483 -0.11335075 -0.108443856 -0.10212951
-0.06692809 -0.027980408 0.102418095 0.058349602 -0.057820685 -0.04023848 0.00013166676 0.008491438
0.03070159 -0.110987194 -0.015899211 -2.8308634e-05 0.025011934 0.04448555 0.104653016 0.093105845
-0.0513099 0.10996307 0.046791136 -0.04585827 -0.099738285 -0.049611125 0.099851325 0.09020834
00000000: 0fd3 dcbd efc5 e7bd e16b a0bc 314c d5bd
00000010: 5ada a23d 9650 ebbd ba13 27bd 74a9 563d
00000020: cdc9 2cbd 3758 133d 3036 7c3d b485 e93d
00000030: ef47 d83d 5eac 013d 3124 1ebd 43fe 84bd
00000040: 1283 533d 95cb 973c 0a70 773c 2a81 a7bc
00000050: d46c bcbd abad e63b e40d 6b3d 0ea8 573d
00000060: eb6c e63d 95ff 9d3d 7cb4 24bd 223f 8cbd
00000070: eaad 173d 5a09 6b3d fa13 d1bd a56c b13d
00000080: 27b9 4dbd 0294 133d 7588 853c 22cf 103c
00000090: be5b e33d 7024 e8bd d017 debd 4729 d1bd
000000a0: 9811 89bd 2b37 e5bc 94c0 d13d feff 6e3d
000000b0: 62d5 6cbd 1bd1 24bd 0710 0a39 ac1f 0b3c
000000c0: e781 fb3c 414d e3bd 103f 82bc 5478 edb7
000000d0: d4e5 cc3c 7b36 363d 5254 d63d 47ae be3d
000000e0: 542a 52bd 5134 e13d 10a8 3f3d e2d5 3bbd
000000f0: 9643 ccbd 0935 4bbd da7e cc3d 26bf b83d

fc_features2.bias f4 [32]
-0.101731434 0.1060728 0.015381649 0.0071953833 -0.02770041 0.11318217 -0.113596484 -0.015930533
0.03134346 -0.120962545 0.10708147 -0.11358982 -0.097784325 -0.07490291 0.07719794 0.10278274
-0.0119883865 -0.043288276 0.076251626 0.09437016 0.06382446 -0.124439165 0.050404087 0.07185595
-0.0055909455 0.069701925 -0.01846607 -0.028098673 0.062763676 -0.07060461 0.11536093 0.11260514
00000000: 9258 d0bd b23c d93d 5003 7c3c 40c7 eb3b
00000010: f8eb e2bc 0ecc e73d 46a5 e8bd c080 82bc
00000020: 0062 003d 36bb f7bd 884d db3d c8a1 e8bd
00000030: 2643 c8bd b266 99bd f419 9e3d c27f d23d
00000040: f06a 44bc 0c4f 31bd d029 9c3d 2445 c13d
00000050: 66b6 823d f6d9 febd 8474 4e3d 3629 933d
00000060: 4034 b7bb e2bf 8e3d 2846 97bc 302f e6bc
00000070: 3e8a 803d 2699 90bd 5a42 ec3d 869d e63d
