PythonAITrainer/tetris_model_v3.onnx (onnx, 4379 bytes, 4 tensors)

conv1.bias f4 [32]
000000 1e df 5d 3e 2e f0 a4 bd 5e 3f 3c 3d 21 25 51 3e
       0.21667144 -0.08053623 0.04595887 0.2042432
000010 aa c0 e1 3e 90 05 0a 3f e6 f3 1b 3f 86 3b 06 be
       0.44092304 0.5391474 0.60919034 -0.13108644
000020 fc cf 4c 3e 8e bb 43 3f 2f 24 6c bd f1 05 a1 3e
       0.20001215 0.7645806 -0.057651695 0.31449845
000030 8c 80 ee be 58 22 3c be 65 7e 27 3f 80 82 02 be
       -0.46582448 -0.18372476 0.6542724 -0.12745094
000040 58 d7 ae 3d 74 17 34 3d 68 29 c8 3d ba e9 27 3f
       0.08537167 0.04396768 0.097735226 0.65591013
000050 18 8d ec 3d 66 df 11 be 6e f0 c3 3e c2 46 26 be
       0.11550349 -0.14245376 0.3826937 -0.1623793
000060 d7 48 23 bf ab e6 c1 3e 92 10 28 bf 55 8f a6 3e
       -0.6378302 0.37871298 -0.65650284 0.3253123
000070 05 50 3c be a9 11 ef be de 0b 98 3e 86 3e bb 3d
       -0.183899 -0.4669316 0.29696554 0.09142785

conv2.bias f4 [64]
000000 a6 5d 20 be 6f 48 02 3f 56 0a e9 bc c0 7d bc bd
       -0.15660724 0.50891775 -0.028447311 -0.092036724
000010 50 23 ba 3e 6b 44 75 3f 3e b7 32 be 0e c3 f6 3e
       0.36355066 0.9580752 -0.17452714 0.4819569
000020 f1 1b d2 be 04 7f e1 be 66 db 18 bf 3a 21 6c bf
       -0.41036943 -0.44042218 -0.59709775 -0.922382
000030 ae 0c 12 be 22 a6 3d 3e 30 af d9 be 62 1e 07 3f
       -0.1426265 0.18520406 -0.4251647 0.52780735
000040 62 c6 c7 be 66 23 2c bf dc b5 62 be 2f 72 81 3e
       -0.39018542 -0.67241514 -0.22139686 0.25282428
000050 44 ce 8f be d6 31 c7 bd 3a eb 01 bf d8 3b 29 3f
       -0.28087056 -0.09726302 -0.5074955 0.6610694
000060 b3 45 fe 3e 1c 7d c7 bd 34 04 88 bd f8 27 0d 3e
       0.4966255 -0.097406596 -0.06641427 0.13784778
000070 9c cf 26 3e 73 4f d2 be f0 77 1a bf e5 d3 04 3e
       0.16290134 -0.4107624 -0.6033926 0.12971456
000080 66 f6 b7 be cc aa 43 bf 34 b9 4f 3e 59 3e f1 bf
       -0.35930175 -0.7643249 0.20285493 -1.8847152
000090 fb 45 6c 3e a6 1e 9a be f4 76 50 be 0b d1 a9 3d
       0.2307357 -0.30101508 -0.20357877 0.08291825
0000a0 55 cb 0e 3e e0 34 31 3f e0 92 07 be 6e 09 a3 3e
       0.13944753 0.69221306 -0.13239622 0.31843132
0000b0 9c 1e c1 bd 60 e8 9e bd 2f 4b 67 3e f5 30 3a bf
       -0.094296664 -0.07759166 0.22587274 -0.7273095
0000c0 c9 02 1e bf eb ef 31 3f e1 72 d4 bd 19 2c e3 be
       -0.61723 0.6950671 -0.10373474 -0.4436958
0000d0 cc 0a 27 3d 86 ca 2d bf cf 90 ea bd d2 ed b4 be
       0.04078178 -0.6788715 -0.11453401 -0.35337692
0000e0 c2 5b 50 bf f8 bd fe bd c9 2c 2c bf a5 03 17 be
       -0.8139001 -0.124385774 -0.67255837 -0.14747484
0000f0 6c ec ae bc fd d2 84 3d b4 3f ea be 38 fc e7 3e
       -0.02135297 0.06485555 -0.45751727 0.45309615

fc_features1.bias f4 [64]
000000 5c 13 26 3e f4 82 f0 bd 46 6c 32 3e 74 9f 24 bc
       0.16218323 -0.11743727 0.17424116 -0.010047782
000010 6d 2e 5e 3e 6a 9a 12 be 9a ec 7d 3e e5 dd 23 be
       0.21697398 -0.14316717 0.24797288 -0.16002615
000020 88 5f d7 bd e0 4e a5 bd a6 89 19 3e ad 76 0e 3d
       -0.10516268 -0.08071685 0.14993915 0.034781147
000030 1f 27 c4 3e 5d 35 38 be 8f 67 94 3e 3a 41 e6 3e
       0.38311097 -0.17989106 0.2898526 0.4497164
000040 96 d9 54 be a8 88 fc bd c2 a8 5a bd 62 98 10 be
       -0.20786127 -0.123307526 -0.053383596 -0.1412063
000050 ba 7f f8 3d 8e fa 6d 3d b9 00 bd be 9c 2c 4e 3e
       0.12133737 0.058100276 -0.36914614 0.20134205
000060 15 8b 43 be 7b c6 6a be 0c d5 17 3e d2 ad 54 3d
       -0.19096024 -0.22927277 0.14827365 0.05192358
000070 0a 33 70 be a1 74 55 3e ba 98 cf 3d 60 e9 5b bc
       -0.2345697 0.20845272 0.10136552 -0.01342234
000080 7c 2c 47 be 8b 4c 64 be 50 d7 9b bc 7b 6d 46 3d
       -0.19450563 -0.22294824 -0.019023567 0.048444252
000090 8b fa 52 be b9 a7 1e bd 97 70 65 bd 09 b8 7a be
       -0.20603387 -0.03873417 -0.056015577 -0.24484266
0000a0 d9 76 22 bd b4 56 7e be 70 32 b2 3c 9e aa c7 be
       -0.039664123 -0.24837762 0.021752566 -0.38997358
0000b0 d5 7a b5 3d 29 16 0a be e6 25 0c be 9c 45 32 3d
       0.08861319 -0.13485016 -0.13686332 0.043523416
0000c0 fb 54 50 be ce 95 51 be 52 cb 36 bc f6 3d 5d be
       -0.20344917 -0.20467302 -0.011156874 -0.21605667
0000d0 02 25 1c bf 2b 9a 17 3e 92 56 6c be 25 2f 21 be
       -0.6099397 0.14804904 -0.23079899 -0.1574064
0000e0 15 4f e3 bd 78 4d a2 be 8a 1d e2 3d 74 7b a6 be
       -0.11099068 -0.3169973 0.110407904 -0.32516062
0000f0 e8 0d d7 bd 5b da 91 bd e8 6c dc bc 80 ae 76 bb
       -0.10500699 -0.07121726 -0.0269074 -0.0037640631

fc_features2.bias f4 [32]
000000 3a 14 aa bd 6c d2 05 be ef 28 fc bd 2d 9b ac 3d
       -0.08304639 -0.13068551 -0.12312495 0.08428035
000010 1c 4a c0 be 8a 0a f8 3e 3f bf 3a bd 6d b6 8e be
       -0.3755654 0.4844554 -0.045592543 -0.27873555
000020 49 73 c3 bd 2c 6e e1 bc 7a c2 8c bd 2e 9f d9 be
       -0.09543473 -0.027518354 -0.06873031 -0.42504257
000030 bc f2 7f 3e 99 ee 77 bd 0c 47 c6 be 89 3f 41 be
       0.2499494 -0.06053028 -0.3872608 -0.18871893
000040 6e 16 03 3d 5e 52 72 be 6a 3b 12 3e 6c ee aa bc
       0.032003812 -0.23664233 0.14280477 -0.020865642
000050 66 80 53 3e c4 09 8f bc fe 2e 73 3e c8 46 ab bc
       0.20654449 -0.017460711 0.23748395 -0.020907775
000060 cb 67 12 bf e5 f0 db be b6 f4 bd 3e 1c 24 c7 bd
       -0.57189626 -0.42957225 0.37100762 -0.09723684
000070 cd e7 41 be af fd 47 be e4 ae 9f 3e 20 61 2e bd
       -0.18936081 -0.19530366 0.31188118 -0.042573094
