PythonAITrainer/tetris_model_v4_ga1done_3k.onnx (onnx, 4456 bytes, 4 tensors)

conv1.bias f4 [32]
000000 87 de 5b be 1a 19 e3 be 89 1e 62 bf 6c 4f f7 be
       -0.21471606 -0.44355088 -0.8832784 -0.48302782
000010 f0 b7 aa 3e a4 65 c2 3e 78 09 0f be 9d fe 54 3f
       0.33343458 0.3796817 -0.13968456 0.8320101
000020 ad b5 ec 3e 01 b8 6c bf 30 79 3f 3d db 3b 90 bf
       0.46232358 -0.9246827 0.046746433 -1.1268266
000030 87 7a ff be 68 e4 f4 3d 9c ac 3c 3e c6 66 10 c0
       -0.49898168 0.119576275 0.1842522 -2.2562728
000040 5c e6 79 bf 4d 8e 9c 3e 55 2f 52 bf f0 29 72 be
       -0.97617126 0.30577317 -0.8210347 -0.2364881
000050 a6 a0 e9 3e 9c e6 11 c0 e7 d6 8d be e3 bc b6 be
       0.45630378 -2.2797003 -0.2770302 -0.35690984
000060 3e fc 31 3e e6 bc 73 bf 4c 92 e0 3e cc ad 3c bf
       0.17381379 -0.9521011 0.43861616 -0.73702693
000070 26 45 0b 3f ae 11 4f 3f f4 03 d6 3e 95 fc 9f 3e
       0.5440239 0.8088635 0.4179989 0.31247392

conv2.bias f4 [64]
000000 27 52 7d bf 57 40 15 3f 28 48 56 bf 0c a1 d2 be
       -0.9895348 0.583013 -0.8370385 -0.41138494
000010 a6 8b 3a be c6 27 73 3f 96 9a b9 3e b4 10 79 3e
       -0.18217334 0.94982564 0.36250752 0.24322778
000020 c0 ef 0f 3f 19 bf 2b bf 8a 7c 7c 3e a8 e5 e1 bd
       0.56225204 -0.67088467 0.24656883 -0.110301316
000030 8e b0 33 bf 5e a1 5d be 46 d8 5f 3f c7 02 7e 3f
       -0.70191276 -0.21643588 0.8743938 0.9922299
000040 98 b6 15 bd 56 69 1e 3f 16 57 0a 40 80 6e e8 bc
       -0.036551088 0.6187948 2.1615653 -0.028373003
000050 12 5c d3 be 3f 66 99 be 1f 02 f2 bf 3a 94 54 3e
       -0.41281182 -0.2996082 -1.8906897 0.20759669
000060 68 8e 55 3f 2b f3 99 3e cd 40 38 3f a2 55 bf be
       0.8342042 0.30068335 0.7197388 -0.3737002
000070 0e 57 97 bf 39 b9 0a bf 04 9d a9 3e 5f f9 18 be
       -1.1823442 -0.5418888 0.33127606 -0.14938878
000080 5c e8 40 3e 2b f7 f4 3f 96 f5 34 be cd 8c 4a 3f
       0.18838638 1.913793 -0.17671809 0.79121095
000090 40 6f a8 bf 4a 0b 9c be 3b b1 50 be 22 97 2d bf
       -1.3158951 -0.30477363 -0.20380108 -0.67808735
0000a0 77 66 83 be e2 bf 21 bf e1 b4 14 bf 9e 33 53 bf
       -0.25664112 -0.63183415 -0.580885 -0.82500637
0000b0 58 7b 32 bf 2e 7b 0e 3e 6c a3 2b bf 00 ac 20 3a
       -0.6971946 0.13914177 -0.67046237 0.00061291456
0000c0 a8 73 6b 3f 49 ec 31 3e 60 57 bd 3e 02 da f9 bf
       0.9197335 0.17375292 0.36980724 -1.9519656
0000d0 c4 9b 81 3e 3a 55 56 3f 82 7e a5 be d8 1e 04 bf
       0.25314152 0.83723795 -0.3232308 -0.51609564
0000e0 0f 98 71 be 1e 09 cb 3e 26 b1 37 3f c5 13 db 3e
       -0.23593162 0.39655393 0.7175468 0.4278852
0000f0 c3 43 5d be 63 2b a7 3f fd d2 21 3f 4c dc 37 3f
       -0.2160788 1.3060116 0.6321257 0.7182052

fc_features1.bias f4 [64]
000000 06 3f 49 bf 37 62 5e be ac 91 26 3f 46 0d bb bd
       -0.7861179 -0.21717153 0.6506603 -0.09133391
000010 94 69 12 bf 7a 04 20 3e ae d8 27 3f dd 18 10 3d
       -0.5719235 0.15626708 0.65565 0.03517996
000020 02 76 f9 bd ea f7 24 bf 94 6a 05 3f e2 2c 05 3f
       -0.12180711 -0.64440787 0.5211575 0.5202161
000030 e2 64 a5 3c d8 94 08 3e ea 67 18 3f 34 3b 84 be
       0.020189706 0.1333803 0.5953356 -0.25826418
000040 d7 39 05 3f 6b 8d 05 bf f2 09 f3 be 8b a0 74 3e
       0.5204138 -0.5216891 -0.47468525 0.23889367
000050 d0 85 50 be 7e e0 db bd 92 06 0c bf d6 e6 27 3e
       -0.20363545 -0.10736178 -0.54697526 0.1639665
000060 1f f2 ad 3e 86 ac 3d 3e 80 f8 21 b8 2a 1b 76 bf
       0.33973786 0.18522844 -3.8616825e-05 -0.961352
000070 41 ef 41 3f 4a 93 9d 3d bb e2 b2 3e a7 fe 68 3f
       0.757557 0.07694109 0.34938607 0.9101357
000080 43 a4 0d bf ec a8 c7 3d 41 f7 81 3e 98 ae 02 3f
       -0.5532877 0.09749016 0.25383952 0.5104766
000090 ce 0d 4c bf 8b 2d 3f be fa 8b 2b be a7 5d 13 bf
       -0.79708564 -0.18669717 -0.16752616 -0.5756478
0000a0 ab ca 8e be 22 59 2c bf f6 ba c0 be 58 d2 b9 be
       -0.27888998 -0.67323506 -0.3764264 -0.36293292
0000b0 ac c3 9d 3e 9e ed 0d 3e 06 66 99 bd 3b 9e ac 3f
       0.30813348 0.13860175 -0.074901626 1.3485788
0000c0 52 aa 26 3e 54 53 53 3d 58 72 2d bd 4a ea 9f 3e
       0.1627591 0.05159314 -0.042345375 0.31233436
0000d0 a6 0a af 3e a0 aa d8 be a2 49 1c bf 8c 7c d3 bd
       0.34187812 -0.42317677 -0.61049855 -0.1032649
0000e0 95 6c 1d 3e c8 9a 09 bd d8 01 21 3f 2e 4a 2b 3c
       0.15373452 -0.033594877 0.6289344 0.010454698
0000f0 87 bb 78 bd a2 c8 83 3e 60 76 2c 3f c8 7c 10 be
       -0.060725715 0.25739008 0.67368126 -0.141101

fc_features2.bias f4 [32]
000000 b2 f8 b5 3e e2 74 d6 be 6a 63 0c bd b0 b9 05 3f
       0.35541302 -0.4188605 -0.034274496 0.5223646
000010 77 dc 07 be ec 0b c9 3d 04 14 e8 be 6b 65 3a bf
       -0.13267694 0.09816727 -0.4532777 -0.72811
000020 0c 8c ff 3e e0 b6 d7 be a4 d0 91 3e 0e 33 1c 3d
       0.49911535 -0.4213171 0.28479493 0.038134627
000030 c8 9e 96 be f6 75 92 3f d4 7c 35 bf 8c c8 a9 bf
       -0.29418015 1.1442249 -0.708936 -1.3264327
000040 a4 92 03 be d8 36 03 bf f4 d7 27 3e a5 9e 6c bf
       -0.12848908 -0.5125556 0.16390973 -0.9242957
000050 6e 97 c9 3e 2e dd 73 3e 1c 0a 45 be 6a 69 3c 3f
       0.39373344 0.23814842 -0.19242138 0.7359835
000060 1c ef 88 3f a5 e2 97 be 1f 4f ef 3e cc e5 78 bf
       1.069797 -0.29665104 0.46740052 -0.9722564
000070 c4 95 37 bf f6 a0 7d be 12 01 fe be fc 59 c2 bc
       -0.717129 -0.24768433 -0.49610192 -0.023724549
