PythonAITrainer/tetris_model_v2_final.onnx (onnx, 4421 bytes, 4 tensors)

conv1.bias f4 [32]
000000 a2 b1 04 be e6 43 3c 3f 20 29 0e bf 79 21 13 be
       -0.12958387 0.73541105 -0.555315 -0.14368238
000010 0b 8b 6d 3e be 3b 94 3e 0c 18 33 be 9c b8 2b 3f
       0.23197572 0.2895183 -0.17489642 0.67078567
000020 c2 13 db bd 7d b1 0d 3f bb ee 08 3f 0c ca 0a 3f
       -0.10697128 0.5534895 0.53489274 0.5421455
000030 d6 2a 34 bf b6 32 87 3d d8 af 58 3f ea 08 27 be
       -0.7037786 0.06601469 0.84643316 -0.16311994
000040 80 f7 b0 3c fa aa 19 bf 46 3d fc 3d ef da da 3e
       0.021602392 -0.60026515 0.123163745 0.42745158
000050 f5 d2 0b 3e cd a5 03 be f7 f5 5f c0 fa 45 1e bd
       0.13654692 -0.12856217 -3.4993875 -0.038640954
000060 ca 28 65 bf b2 63 7b be 90 03 e7 3e d9 69 01 bf
       -0.89515364 -0.2454975 0.45119905 -0.50552136
000070 a4 60 02 3e fa 96 01 3f b4 ba 9c 3d 39 ab 61 3e
       0.12732178 0.50620997 0.07652798 0.22037973

conv2.bias f4 [64]
000000 a0 72 80 bd 6d 9c 49 3e 75 06 c7 3d 48 40 f5 3c
       -0.06271863 0.19688578 0.097180285 0.029937878
000010 f1 39 5b 3f c1 a5 e3 be 80 56 28 bf 64 d7 d3 be
       0.85635287 -0.44462398 -0.6575699 -0.41375268
000020 e8 94 d3 be 2a 27 ff be 91 35 2b 3f bc 94 87 bf
       -0.41324544 -0.49834567 0.6687861 -1.0592265
000030 40 92 77 be 80 23 cc 3b 2c 93 4b 3d c9 55 25 bf
       -0.24176884 0.006229818 0.0497009 -0.6458402
000040 71 6e 09 be b4 9e f6 3d e2 7a 47 be f9 d3 52 3f
       -0.13421036 0.12041989 -0.1948047 0.82354695
000050 d0 dd cf 3c 1f 9f 0b 3f ba ab d0 3e 2b cf 24 3f
       0.025374323 0.54539675 0.40756017 0.64378613
000060 17 51 cb 3e 7e f3 d6 3d a9 b4 28 3e 57 6b 18 bf
       0.39710304 0.10495661 0.16475166 -0.5953879
000070 b0 c7 b6 3e 16 cf 87 3e 6e ee ed 3e 00 cc b2 3e
       0.35699224 0.26525182 0.4647097 0.34921265
000080 b2 c6 fa 3e 08 92 9a bc fb 83 84 bf 0c 1f 03 bf
       0.48979717 -0.018868461 -1.0352777 -0.5121925
000090 d9 42 89 3e f7 74 3c 3f de d0 37 bf 2c f5 9d be
       0.26808813 0.73615974 -0.7180308 -0.30851114
0000a0 83 fc 0a 3d 2f 1d 90 be 32 e3 1f 3e 98 8d ad 3e
       0.03393222 -0.28147265 0.15614012 0.3389709
0000b0 87 2b 88 be 7b f6 55 bf aa f2 7f 3e 1f c9 2c bf
       -0.2659571 -0.83579224 0.24994913 -0.67494386
0000c0 30 10 c8 bd a7 1d 17 bf b6 27 0c 3f 62 75 05 bf
       -0.097687125 -0.5902962 0.54748094 -0.52132237
0000d0 2c c6 06 3f de 4b 16 be 1d 28 11 3f 9c ad e9 be
       0.52646136 -0.14677379 0.56701833 -0.45640266
0000e0 62 c9 16 bf 4e 21 39 bf 34 a2 fb 3e c9 7d cf be
       -0.58901036 -0.72316444 0.4914719 -0.40525654
0000f0 8b 5f 0b 3f 0e 65 93 3f fe a2 1a be 00 c3 d0 ba
       0.5444266 1.1515214 -0.15101239 -0.0015927255

fc_features1.bias f4 [64]
000000 6b b5 f3 3e 86 56 d9 bc 2e 6d 94 3d fb 38 5f be
       0.47599348 -0.026530515 0.07247387 -0.2179908
000010 5e 5d d2 3c e5 95 f8 bc e0 f8 07 3e 6a 11 9d be
       0.025679287 -0.030344913 0.13278532 -0.30677348
000020 2c b2 76 3e 60 73 9f bd 1a f5 69 3e ce 47 8d 3e
       0.24091405 -0.07785678 0.22847405 0.27593845
000030 68 99 d3 bc 3b d9 de 3d 1d ab 88 be 4f 65 ef 3d
       -0.025829986 0.10881277 -0.2669305 0.11689245
000040 47 13 f5 be 1b 61 5f 3f 96 2e 2c be bc 28 5a 3e
       -0.4786627 0.87257546 -0.16814646 0.21304601
000050 fd a1 9d be ce 8c 07 be 95 31 19 3e ec b1 e3 3e
       -0.3078765 -0.13237306 0.1496032 0.4447168
000060 07 67 b1 3d 5c ee 65 be dc 5f 81 3d 99 36 93 3c
       0.08662229 -0.22454208 0.06317112 0.01797037
000070 84 aa a0 3e 86 f9 42 be 9a 25 45 3d 04 e9 e0 be
       0.31380093 -0.19040498 0.048131563 -0.43927777
000080 72 ee 14 3f 37 69 f0 3e 48 ad f2 3a b2 ca d5 bc
       0.5817634 0.46955273 0.0018514777 -0.02609763
000090 d8 88 2a 3e ba 61 9b be 39 d6 34 3e 82 e6 a1 be
       0.16653764 -0.30347997 0.17659844 -0.31621176
0000a0 5b 9d 99 3e 88 cc 77 bd e7 91 00 be 4d c3 f9 be
       0.30002865 -0.06049779 -0.12555657 -0.48781815
0000b0 5c bf 96 bd 8a 80 b0 be 92 27 5c 3f 08 0a 62 be
       -0.07360718 -0.34473068 0.8599788 -0.22074139
0000c0 dc 28 85 3e bf 69 3d 3e de bf 94 3d 2d 7c 87 3e
       0.26007736 0.1849737 0.07263158 0.26461926
0000d0 53 30 1d 3e 50 01 bf be 46 f1 80 3d c4 cb ef 3e
       0.15350465 -0.3730569 0.06296019 0.46835148
0000e0 26 66 2e bd 02 1a 13 3f da c8 a3 3e 23 28 16 be
       -0.042577885 0.5746156 0.31989175 -0.14663748
0000f0 b1 48 79 3e 27 40 27 bf a4 9b a0 bd e4 79 dc 3e
       0.24344136 -0.65332264 -0.07842186 0.43061745

fc_features2.bias f4 [32]
000000 a0 12 3e 3e 8e 81 bf bd 04 2c 0f 3c 10 be d5 3d
       0.18561792 -0.093508825 0.0087385215 0.10436642
000010 c4 ed 0c 3f db 6e 14 3e e0 7e 0c be 2f a9 90 3d
       0.550503 0.14495413 -0.13720274 0.07063519
000020 95 47 0f 3e 4b 35 57 3e 0c 63 26 3e ff 87 1b 3d
       0.1399215 0.21016423 0.16248721 0.037971493
000030 23 7d ba be 1f 01 87 be 70 d6 0d 3b 7a 0e 97 bd
       -0.36423597 -0.26368043 0.0021642707 -0.07375808
000040 18 65 53 3a 8a c6 a1 3e 7f 71 20 3e 18 89 0d 3e
       0.00080640754 0.31596786 0.15668295 0.13821828
000050 1c 8f ec be 7b a4 d7 3e f5 d5 90 3e 7a 27 bd 3d
       -0.46202934 0.42117676 0.28288236 0.09236045
000060 ba 48 6e be 52 c6 81 be 6d 6b 23 3f 07 0f 35 be
       -0.2326993 -0.2534662 0.63835794 -0.17681514
000070 26 64 ee bd 96 3a 4c bf 0c 53 fd 3c f0 5a 0c 3e
       -0.116401955 -0.79776895 0.030923389 0.13706565
